----------------------------------------------------------------
        Layer (type)               Output Shape         Param #
================================================================
            Conv2d-1           [-1, 32, 28, 28]             320
         MaxPool2d-2           [-1, 32, 14, 14]               0
            Conv2d-3           [-1, 64, 14, 14]          18,496
         MaxPool2d-4             [-1, 64, 7, 7]               0
            Linear-5                   [-1, 10]          31,370
================================================================
Total params: 50,186
Trainable params: 50,186
Non-trainable params: 0
----------------------------------------------------------------
Input size (MB): 0.00
Forward/backward pass size (MB): 0.36
Params size (MB): 0.19
Estimated Total Size (MB): 0.55
----------------------------------------------------------------
Epoch: [1/25], Step: [100/468], Loss: 0.9497 Acc: 70.19%
…
