…
Epoch: [24/25], Step: [400/468], Loss: 0.0203 Acc: 99.34%
Test accuracy: 98.82 % Test loss: 0.0373
Epoch: [25/25], Step: [100/468], Loss: 0.0171 Acc: 99.52%
Epoch: [25/25], Step: [200/468], Loss: 0.0188 Acc: 99.50%
Epoch: [25/25], Step: [300/468], Loss: 0.0188 Acc: 99.47%
Epoch: [25/25], Step: [400/468], Loss: 0.0193 Acc: 99.42%
Test accuracy: 98.93 % Test loss: 0.0328
Model size: 0.08 MB
----------------------------------------------------------------
        Layer (type)               Output Shape         Param #
================================================================
            Conv2d-1           [-1, 16, 28, 28]             160
         MaxPool2d-2           [-1, 16, 14, 14]               0
            Conv2d-3           [-1, 32, 14, 14]           4,640
         MaxPool2d-4             [-1, 32, 7, 7]               0
            Linear-5                   [-1, 10]          15,690
================================================================
Total params: 20,490
Trainable params: 20,490
Non-trainable params: 0
----------------------------------------------------------------
Input size (MB): 0.00
Forward/backward pass size (MB): 0.18
Params size (MB): 0.08
Estimated Total Size (MB): 0.26
----------------------------------------------------------------
