…
Epoch: [24/25], Step: [400/468], Loss: 0.0255 Acc: 99.19%
Test accuracy: 98.68 % Test loss: 0.0407
Epoch: [25/25], Step: [100/468], Loss: 0.0236 Acc: 99.37%
Epoch: [25/25], Step: [200/468], Loss: 0.0242 Acc: 99.36%
Epoch: [25/25], Step: [300/468], Loss: 0.0251 Acc: 99.29%
Epoch: [25/25], Step: [400/468], Loss: 0.0251 Acc: 99.27%
Test accuracy: 98.78 % Test loss: 0.0361
Model size: 0.04 MB
----------------------------------------------------------------
        Layer (type)               Output Shape         Param #
================================================================
            Conv2d-1            [-1, 8, 28, 28]              80
         MaxPool2d-2            [-1, 8, 14, 14]               0
            Conv2d-3           [-1, 16, 14, 14]           1,168
         MaxPool2d-4             [-1, 16, 7, 7]               0
            Linear-5                   [-1, 10]           7,850
================================================================
Total params: 9,098
Trainable params: 9,098
Non-trainable params: 0
----------------------------------------------------------------
Input size (MB): 0.00
Forward/backward pass size (MB): 0.09
Params size (MB): 0.03
Estimated Total Size (MB): 0.13
----------------------------------------------------------------
